Sequential(
  (0): Linear(in_features=881, out_features=50, bias=True)
  (1): ReLU()
  (2): Linear(in_features=50, out_features=1385, bias=True)
)
Test : 0.8905460826408438 0.0038154562125180896 0.38060109267863185 0.003666945924094187
Train: 0.9093231955104866 0.004745544959928209 0.44048523727325756 0.02693006414830723
Sequential(
  (0): Linear(in_features=881, out_features=100, bias=True)
  (1): ReLU()
  (2): Linear(in_features=100, out_features=1385, bias=True)
)
Test : 0.8862666907215411 0.002339534694463953 0.39958328506318025 0.004758822620032537
Train: 0.9231970248812015 0.0020123376802208084 0.518623294393297 0.008445803057096269
Sequential(
  (0): Linear(in_features=881, out_features=150, bias=True)
  (1): ReLU()
  (2): Linear(in_features=150, out_features=1385, bias=True)
)
Test : 0.8868169363926469 0.0028257158857803726 0.3979504015575329 0.006311499412917638
Train: 0.9272345669325063 0.0022666617945914175 0.5348613257768683 0.010383278339539313
Sequential(
  (0): Linear(in_features=881, out_features=200, bias=True)
  (1): ReLU()
  (2): Linear(in_features=200, out_features=1385, bias=True)
)
Test : 0.8814077627474717 0.0034025598182985633 0.3912472578026008 0.007761276650369219
Train: 0.9301039126743508 0.001565680048807827 0.5499684232792033 0.005588371563000566
Sequential(
  (0): Linear(in_features=881, out_features=250, bias=True)
  (1): ReLU()
  (2): Linear(in_features=250, out_features=1385, bias=True)
)
Test : 0.8862465557837969 0.0032031883126262977 0.3983963731012226 0.004445957549533009
Train: 0.9274956474395424 0.001846805048581095 0.5400886065289638 0.008110512400686153
Sequential(
  (0): Linear(in_features=881, out_features=300, bias=True)
  (1): ReLU()
  (2): Linear(in_features=300, out_features=1385, bias=True)
)
Test : 0.8845929746932892 0.003382296102813225 0.39244540893734736 0.005464998654487676
Train: 0.9295768419409267 0.0020128749560536516 0.5539437766799664 0.010204014316173772
Sequential(
  (0): Linear(in_features=881, out_features=350, bias=True)
  (1): ReLU()
  (2): Linear(in_features=350, out_features=1385, bias=True)
)
Test : 0.8757768077259932 0.0038548044306903383 0.3947986676272945 0.006811155799067221
Train: 0.9292885090095236 0.001423530022190574 0.5612528164173354 0.007601159276453282
Sequential(
  (0): Linear(in_features=881, out_features=50, bias=True)
  (1): ReLU()
  (2): Linear(in_features=50, out_features=1385, bias=True)
  (3): ReLU()
)
Test : 0.8280646286099728 0.004433898622739452 0.36163131358034906 0.006490516118690062
Train: 0.8521328127521706 0.00578631102125885 0.4748120844257232 0.01044628186323323
Sequential(
  (0): Linear(in_features=881, out_features=50, bias=True)
  (1): Linear(in_features=50, out_features=1385, bias=True)
)
Test : 0.8308938179759362 0.007042588643590632 0.36354578743496907 0.00823873489348939
Train: 0.949861203212263 0.001987937927282792 0.6599420598748926 0.006399745030222566
Sequential(
  (0): Linear(in_features=881, out_features=50, bias=True)
  (1): ReLU()
  (2): Linear(in_features=50, out_features=1385, bias=True)
)
Test : 0.896221252428677 0.001032487030871007 0.38933418817539256 0.0071240066674042235
Train: 0.90635962666151 0.002767428415761146 0.42987062020999806 0.018844451616796352
Sequential(
  (0): Linear(in_features=881, out_features=10, bias=True)
  (1): ReLU()
  (2): Linear(in_features=10, out_features=1385, bias=True)
)
Test : 0.896887303275555 0.0012573431600780977 0.3956465137360067 0.0042983199290638225
Train: 0.9015350172037359 0.0003099026233367317 0.39985549127501513 0.0010901176483941839
Sequential(
  (0): Linear(in_features=881, out_features=20, bias=True)
  (1): ReLU()
  (2): Linear(in_features=20, out_features=1385, bias=True)
)
Test : 0.8968687337111865 0.0012441040580826088 0.39555282865751534 0.004275195693720584
Train: 0.9015007623493088 0.000362952602139696 0.3997483013134774 0.001472107823958073
Sequential(
  (0): Linear(in_features=881, out_features=30, bias=True)
  (1): ReLU()
  (2): Linear(in_features=30, out_features=1385, bias=True)
)
Test : 0.896818121484723 0.001308708329838119 0.39580737910388825 0.004111556569494374
Train: 0.9024975099436414 0.0005576180718392012 0.40438497521746497 0.0017137576437827773
Sequential(
  (0): Linear(in_features=881, out_features=40, bias=True)
  (1): ReLU()
  (2): Linear(in_features=40, out_features=1385, bias=True)
)
Test : 0.8846112009823027 0.008672276053593365 0.3833584963554367 0.012097240718695003
Train: 0.9091575985094522 0.004307527931915372 0.44044297497236196 0.024314173848638765
Sequential(
  (0): Linear(in_features=881, out_features=50, bias=True)
  (1): ReLU()
  (2): Linear(in_features=50, out_features=1385, bias=True)
)
Test : 0.8805606659654316 0.009373865044066142 0.3816483106064018 0.010675492724846563
Train: 0.9127802801364074 0.005249415805187249 0.46544082291129546 0.031802943973461596
Sequential(
  (0): Linear(in_features=881, out_features=60, bias=True)
  (1): ReLU()
  (2): Linear(in_features=60, out_features=1385, bias=True)
)
Test : 0.8666476138864698 0.008902755404598579 0.36418470574458695 0.009472677455524473
Train: 0.9194727122719772 0.004413847378166337 0.4984725912442185 0.028228136213004584
Sequential(
  (0): Linear(in_features=881, out_features=70, bias=True)
  (1): ReLU()
  (2): Linear(in_features=70, out_features=1385, bias=True)
)
Test : 0.87569851336017 0.011373760105504315 0.3751084706705584 0.011298956886154407
Train: 0.914426045163441 0.005727366643314084 0.4716892756156671 0.03322651086841202
Sequential(
  (0): Linear(in_features=881, out_features=80, bias=True)
  (1): ReLU()
  (2): Linear(in_features=80, out_features=1385, bias=True)
)
Test : 0.8592044597124591 0.009670783353881305 0.3541929498470596 0.00883205231980069
Train: 0.9282482098917931 0.005066446894869721 0.5475975109657023 0.028252101294736445
Sequential(
  (0): Linear(in_features=881, out_features=90, bias=True)
  (1): ReLU()
  (2): Linear(in_features=90, out_features=1385, bias=True)
)
Test : 0.8624347943381199 0.004331943835386053 0.3541303268546257 0.006023947811559738
Train: 0.9298380125543104 0.001645594036063994 0.5636464838766939 0.00682189720703245
Sequential(
  (0): Linear(in_features=881, out_features=100, bias=True)
  (1): ReLU()
  (2): Linear(in_features=100, out_features=1385, bias=True)
)
Test : 0.8696504274198474 0.01190376451246539 0.36676416839525156 0.009100256913685878
Train: 0.922411746419144 0.006627046983434132 0.5141312866818158 0.036070714617525264
